model.pth (torch, 371816 bytes, 8 tensors)

conv1.0.weight f4 [16, 1, 5, 5]
000000 8c ab 43 3d 67 e2 12 be 29 17 e1 bd 25 19 f3 ba
       0.04777102 -0.14344178 -0.109907456 -0.0018546922
000010 13 6e 8d be 7d 62 04 3e 73 56 c0 3b e8 4e 03 3e
       -0.27623042 0.12928195 0.0058696805 0.12823069
000020 a4 52 23 3d f5 21 58 bd 3d 1a cf 3d 9c 14 e7 3d
       0.039873734 -0.05276676 0.101124264 0.11283228
000030 9b e4 45 3e 60 20 53 3d 99 93 39 3d 69 86 f9 bc
       0.19325487 0.051544547 0.045306776 -0.0304596
000040 26 26 34 3d d4 bb 28 3d d1 13 82 3e 8e 11 25 3e
       0.043981694 0.04119475 0.25405744 0.16119978
000050 20 cf 21 be d5 aa 51 be 6c 8d 02 be ab 6c 02 be
       -0.15801668 -0.20475323 -0.1274926 -0.12736766
000060 0b 21 8c bc 18 55 9e 3d 48 ed 85 3e 09 83 3f 3e
       -0.0171056 0.07731074 0.26157594 0.1870233
000070 c5 c6 81 be c0 2b ba 3c 91 0b 2b 3e 8d 3a b1 3e
       -0.25346962 0.02272594 0.16703631 0.34614983
000080 01 1f 19 3e 54 d5 97 be d6 e3 9c be 35 4e 53 3d
       0.14953233 -0.29654944 -0.30642575 0.051588256
000090 59 1b b1 3e b2 d2 58 bd ad 52 59 bd 5a 16 5c be
       0.34591177 -0.05293531 -0.05305736 -0.21492901
0000a0 fb b4 95 3e 7c d1 d0 3c c9 4c f8 3d e7 0b cd bd
       0.2923964 0.025490515 0.121240206 -0.10012036
0000b0 75 6f 42 be aa 9c 33 3e 9b 69 95 bc ac 95 40 3d
       -0.1898783 0.17540231 -0.018238833 0.04701774
0000c0 14 37 ec bd a8 43 91 bd 0e 77 83 be 30 9a 05 be
       -0.11533943 -0.070929825 -0.2567677 -0.13047099
0000d0 e4 ed 05 3e ae 25 62 3d 78 39 9a 3e 46 72 9c 3d
       0.1307903 0.055211715 0.3012197 0.076389834
0000e0 cf 02 07 bd d4 72 45 bd ac 09 8a 3e fc f4 17 3e
       -0.032961663 -0.04820521 0.26960504 0.14839548
0000f0 ff f9 26 be 14 c6 20 3e ac 44 70 3e bf 40 9d 3e
       -0.16306303 0.15700561 0.23463696 0.3071346
000100 ee 9a cb bd 9e 40 7d bb dc 0c 80 3d 58 6c 03 3e
       -0.0994166 -0.0038643251 0.06252453 0.12834299
000110 fd f9 ab bd dd 8f 29 be 10 19 1a 3e fd 27 fc 39
       -0.08397291 -0.16558786 0.15048623 0.0004809498
000120 bc 15 e9 3d 66 b4 20 bc 24 a4 1f bb 95 53 f5 3c
       0.11381099 -0.009808635 -0.002435931 0.029947082
000130 3f 88 ad 3d a7 6c fe 3d 8b f7 29 be e5 40 04 3e
       0.084732525 0.124230675 -0.16598336 0.1291538
000140 ca 09 1a be e8 fa 1a be 44 23 b9 3c cf 44 63 bc
       -0.15042797 -0.15134776 0.022599824 -0.013871386
000150 85 3b 20 3e 6a 66 05 be f5 0e 3d be 05 92 1b 3e
       0.15647705 -0.13027349 -0.18462737 0.15192421
000160 e2 5c 02 bc 0b a3 07 3e 7b af 30 3d e0 5c 1c be
       -0.007956715 0.1324579 0.0431361 -0.15269804
000170 29 eb 7b 3d e4 e0 90 3d 00 4c f6 bd 4a 20 e4 bd
       0.061503563 0.070741445 -0.120262146 -0.11138971
000180 1e 02 93 3d d3 df 7e 3d cb 99 6c bd 70 97 36 bd
       0.07178138 0.062225174 -0.057763856 -0.044578016
000190 36 15 41 3e df 57 73 3d 8f 0b 80 3e 6d 9d 19 3e
       0.18855748 0.059409972 0.25008819 0.1500146
0001a0 d5 8d 28 be 5c 21 47 be 82 a6 9d 3e dc 31 22 3e
       -0.16460355 -0.1944632 0.30791098 0.15839332
0001b0 6f d1 12 3e b2 3b 89 bd a9 bd 98 3d a6 2e a4 3e
       0.14337705 -0.06700839 0.0745805 0.3206684
0001c0 e6 e4 a9 3e ea 7b 32 be 41 e2 d2 bd da 09 1b 3e
       0.33182448 -0.17430082 -0.10297061 0.15140477
0001d0 83 a8 87 3e ba b3 73 3e 79 c5 20 be ae c7 64 be
       0.26495752 0.23799029 -0.1570033 -0.22341797
0001e0 f3 61 01 be 2b cf b6 3d 62 ca 95 3e 7d b9 9d bd
       -0.12635021 0.08926233 0.29255968 -0.07701395
0001f0 9c dd f1 3d ba f2 26 be ba 32 78 be 4f b5 55 bd
       0.11809847 -0.1630353 -0.242381 -0.052174862
000200 68 a6 34 3e 75 86 6d 3e 82 de 06 be 48 81 95 3d
       0.17641604 0.23195823 -0.13170817 0.07300049
000210 0f 45 84 3e 6f 36 7a 3e ba c1 1a 3e 7e 2b 57 3e
       0.25833938 0.24434827 0.15112963 0.21012685
000220 0d 25 48 3e a3 f9 f2 3d 46 b6 8c bd 6c 06 10 be
       0.19545384 0.11864021 -0.068707034 -0.1406495
000230 da f3 39 bd 29 d4 87 bc ef 7b 07 be 88 c8 d2 3d
       -0.04539857 -0.016580658 -0.1323087 0.102921546
000240 3a fb d4 3d 37 fe 2e bd ed fe 35 3d 21 f7 33 3d
       0.1039948 -0.042722907 0.04443257 0.043936852
000250 7b 08 11 3e 79 a0 3a 3e 39 4b 88 bd c2 9e 4f 3e
       0.14163391 0.18225278 -0.066549726 0.20275405
000260 f8 56 a8 bc ba fc af bc ff bd 50 be 37 a1 05 be
       -0.020549282 -0.021482814 -0.20384978 -0.1304978
000270 be 66 e4 bd 45 e0 ba bd e9 2e f8 3d 5b a0 a0 bd
       -0.11152409 -0.09124807 0.121183224 -0.078430854
000280 2c 6e 18 be 5d 38 8a 3d 8f 85 1f 3d 53 ea d7 3d
       -0.14885777 0.06749032 0.03894573 0.10542741
000290 ef 85 dd bd a6 12 5d 3d d1 f1 96 bd 58 78 81 bd
       -0.108165614 0.053972863 -0.073703416 -0.06321782
0002a0 48 8e 2d be 7d e5 84 bd a1 ef 0a bd 96 77 df 3d
       -0.16948807 -0.06489084 -0.033919934 0.10911481
0002b0 8e bb 7f 3d 45 03 de 3d ad 15 94 3e bf c8 57 3e
       0.062434725 0.10840467 0.28922787 0.21072672
0002c0 e3 89 0f 3e f6 fe b3 bb 5f 9b 18 be a8 fe 2a 3e
       0.14017443 -0.00549304 -0.1490302 0.16698706
0002d0 da 1c 17 bd d8 2b 0f bd 59 42 58 be 21 04 a3 bd
       -0.03689275 -0.034953922 -0.2111906 -0.07959772
0002e0 82 dd 1e be 8a 93 58 3e 13 71 2f be 5b 13 3e be
       -0.15514186 0.21150032 -0.17132978 -0.18562071
0002f0 f4 ec 4c bd e3 f8 14 be a8 fd fb 3d db 04 68 bc
       -0.050030664 -0.14548068 0.123042405 -0.014161314
000300 a6 34 4e bd a9 f8 10 3d 26 81 1d 3e 98 58 a4 bd
       -0.05034318 0.03539339 0.15381297 -0.080247104
000310 10 76 60 3e 9b d7 85 3e 9c 82 97 3e cc c7 aa bd
       0.21920037 0.26141056 0.29591835 -0.083388895
000320 0b f6 72 3b 68 a3 5b be b9 26 11 3e 94 b5 81 bd
       0.0037072923 -0.21449053 0.14174928 -0.063334614
000330 c0 d4 96 3d 0e 0c f0 bc e0 48 88 bd c4 d0 ab 3c
       0.073647976 -0.029302623 -0.06654525 0.02097357
000340 67 bc 0e 3e 26 9c 1d 3e b4 bb 7f 3d ab 73 af 3d
       0.13939057 0.15391597 0.062434867 0.08566984
000350 de df 00 be b0 a6 7b 3e 13 35 93 3e 9b da 3e 3e
       -0.12585399 0.24575305 0.2875143 0.18638079
000360 1f 85 17 3e ac 13 30 be 43 16 e6 bd 89 af 64 3e
       0.14796875 -0.17195004 -0.11234715 0.22332586
000370 7b 3e 75 be d0 2c 8a 3d ae 76 8b be c6 98 88 be
       -0.23949616 0.067468286 -0.27238983 -0.26679057
000380 ab b4 5c 3d 64 75 e4 bd bd ab 5e 3c 48 d3 78 3e
       0.053883236 -0.11155203 0.01359075 0.24299347
000390 33 8b 92 3e 05 27 a6 3e 37 ec 7c 3d 60 bd 4a bd
       0.28621826 0.32451645 0.06174871 -0.04949701
0003a0 b9 c4 99 3e ef 19 59 3d 8c 45 93 b9 2c 1c 08 3e
       0.300329 0.053003248 -0.0002808984 0.13291997
0003b0 7a cc dc bd 4e 12 e9 3d 01 cf d6 3d 74 b3 29 be
       -0.10781188 0.113804445 0.104887016 -0.16572362
0003c0 3c 7d 30 be 4b b3 96 bd 98 2c 7b bc bf 4f bf bd
       -0.17235273 -0.07358416 -0.015330456 -0.09341382
0003d0 cd a6 20 be 2b 57 53 bd 07 36 92 be 9a 3f 83 be
       -0.1568863 -0.0515968 -0.28556845 -0.25634462
0003e0 be b7 64 be 4b e8 d8 3d 0d 00 79 3e 03 e3 78 bc
       -0.22335717 0.10591181 0.24316426 -0.015190843
0003f0 b1 21 43 38 8d 49 06 3d 69 5a 89 bd d0 8b aa bc
       4.6523e-05 0.032784987 -0.067066975 -0.02081862

conv1.0.bias f4 [16]
000000 8f 32 a7 bd 3c 19 0a 3e f7 e3 af bb e6 8a 17 be
       -0.0816394 0.13486189 -0.0053677517 -0.1479908
000010 c9 b8 35 bc aa fd 17 be d2 9b be bd 20 96 d2 bd
       -0.0110914195 -0.14842859 -0.09307064 -0.1028254
000020 2f 4d 2d 3e 46 01 a1 3c e3 26 35 3d 3f 6f e6 3d
       0.16923974 0.019653928 0.04422654 0.11251687
000030 b0 ff 7d 3d b6 1b f4 bd d0 45 16 3e 25 9b 33 3e
       0.06201142 -0.11919348 0.14675069 0.17539652

conv2.0.weight f4 [32, 16, 5, 5]
000000 83 19 2f bd 83 d1 36 3d 7a b6 f5 bc b1 7c bf bc
       -0.04274894 0.0446334 -0.029994238 -0.023374887
000010 b8 ef 2a bd ef b3 75 3d 5a 6a 46 3c 99 7c 23 3d
       -0.04173252 0.05998605 0.012110317 0.039913747
000020 2c 0d f8 3b 9d ea 41 3d 67 91 20 3c 87 b7 07 bd
       0.0075699296 0.047342885 0.009800292 -0.03313401
000030 24 7d 2c 38 98 cb 03 bc 48 8b ce 3b 12 4a b9 bc
       4.1124542e-05 -0.008044146 0.0063032247 -0.022618327
000040 38 2e 39 3b b6 6f 25 3c 76 1d 44 3c a9 36 3e bd
       0.0028256308 0.010097435 0.011969915 -0.046438847
000050 a5 d7 3a 3c cd 76 bb ba 17 59 20 3d 76 cf 33 3d
       0.011403953 -0.0014302373 0.039147463 0.043899022
000060 0d d1 d7 bc 14 ee a4 3c d8 d1 35 bd b6 d5 95 3c
       -0.0263448 0.020133056 -0.044389576 0.018290382
000070 26 a3 6c bc 36 32 bd 3c 6b 24 f7 bc f2 cb da 3c
       -0.0144431945 0.023095232 -0.030168733 0.026708577
000080 ee 23 2d bd 7b 6f 84 bd 2c d6 79 3c 39 87 38 3d
       -0.042270593 -0.06466576 0.015248816 0.045050833
000090 3a b1 8b 3d ad 4a 00 bc dd 4a c2 3c ad b7 93 3c
       0.06820913 -0.007830304 0.023717338 0.01803192
0000a0 65 71 b5 bc a0 52 89 3a bf 1d 1a 3d 65 b2 59 bd
       -0.022148797 0.0010476895 0.037626024 -0.053148646
0000b0 49 e6 92 bb d6 62 53 bd a5 e9 a7 3d 27 22 d8 3c
       -0.0044830185 -0.05160793 0.08198861 0.026383473
0000c0 c0 99 dc bc 90 65 40 3c 95 b0 ec bc 44 50 a4 bc
       -0.026928782 0.011742964 -0.028892795 -0.020057805
0000d0 da 54 8e bc dd e4 07 bd d0 13 f3 bb ff 0a 16 bd
       -0.017374445 -0.033177245 -0.0074181333 -0.03663158
0000e0 43 40 cd 3c 5e 92 b8 3c 65 b7 34 3d 5d 4a 4d 3d
       0.025055056 0.02253073 0.04412021 0.050119746
0000f0 f0 a4 84 bd b1 27 03 bb e6 94 58 ba bc e5 1c bd
       -0.06476772 -0.0020012672 -0.00082619337 -0.03830503
000100 4c 4c d4 3c ff 88 f2 bc 04 41 ea b9 54 55 cd ba
       0.025915287 -0.02960634 -0.00044680398 -0.0015665689
000110 d6 f1 f4 3c b9 ce 10 bd 35 c0 3e bc 85 a4 72 3d
       0.029900473 -0.035353396 -0.011642505 0.05923893
000120 da d2 84 3c 0d 91 b2 3c 52 0e 43 3c 26 9f 89 bc
       0.016213823 0.021797681 0.01190527 -0.01679952
000130 39 e1 da 3c fa 6b 33 bd d3 28 1f 3c 7e 6f ce 3c
       0.026718723 -0.043804146 0.009714323 0.025199648
000140 a4 45 d9 3c 5a 20 08 bd e4 5e 0e bd 73 df d1 3c
       0.026522465 -0.033233978 -0.034758464 0.025619244
000150 82 c7 13 bd 46 af 33 bd 11 b8 43 bd a9 4e c2 bc
       -0.036078937 -0.043868326 -0.04778296 -0.023719149
000160 31 1e 56 b9 e7 83 a3 bc b8 72 1d bc b1 fb 2d bd
       -0.00020419878 -0.019960357 -0.009609871 -0.04247636
000170 d7 a7 ff 3c 30 55 6d bc 87 95 07 bd 03 59 ce 3c
       0.031207962 -0.014485642 -0.033101585 0.025188928
000180 d9 48 14 bd c5 85 01 3d 37 07 ae 3c ae 78 76 bd
       -0.036202285 0.031621713 0.021243675 -0.060173683
000190 aa 16 70 bd 61 2b 42 bd 83 2e 6b bd af b4 ab bc
       -0.058615364 -0.04740465 -0.057417404 -0.02096018
0001a0 fd 0e 14 bd ca f9 c4 bc 17 7a 10 3c cb 89 39 bd
       -0.036147106 -0.02404489 0.008818171 -0.045297425
0001b0 50 45 24 bd a1 d8 d6 bc e4 4f 39 3d 44 e0 bb 3c
       -0.040105164 -0.026226344 0.045242205 0.022934087
0001c0 98 8a 33 bd a2 da 72 bd fd 92 aa 39 98 71 8c 3c
       -0.043833345 -0.059290536 0.00032534442 0.01714401
0001d0 a3 1c 59 3d 45 ae bf 3b c7 53 21 bd b6 52 90 bd
       0.053005826 0.005849632 -0.039386537 -0.07047026
0001e0 e0 5e 44 3d c7 f5 12 3d 1a 73 1b bd 93 2c 13 3d
       0.047942042 0.035878923 -0.037951566 0.03593118
0001f0 f9 7b cb 3c 32 34 04 bd 86 dd 12 bd c8 8e 08 bd
       0.024839388 -0.03227634 -0.035855792 -0.03333929
000200 8e eb dd bc 7f 11 0b 3d de ee 26 bd 83 b7 d1 3c
       -0.02708986 0.033952232 -0.040755145 0.0256002
000210 3f 02 29 bd 27 32 02 3d 67 a6 c0 3c cf a5 87 bc
       -0.041261908 0.03178611 0.023516847 -0.016558556
000220 d0 5c 81 3c ba 80 65 bd 17 ee 0b bd d5 1e bd 3b
       0.015791327 -0.056030966 -0.034162607 0.0057714977
000230 be bc 1c 3d fa fc 25 bd f2 d2 6d bd 46 f4 37 bd
       0.038265936 -0.04052446 -0.0580625 -0.04491069
000240 e3 d4 16 bd 23 0f 2c bc 15 56 ae bc 76 de 10 bd
       -0.03682412 -0.010501656 -0.021281281 -0.035368405
000250 f5 62 76 3c b7 d2 ac bb 01 2e ff bc e9 1f d9 bc
       0.015038242 -0.0052741426 -0.031149866 -0.026504474
000260 f1 8a 41 3c 40 ca b4 3b de 98 3f 3d c6 dc 77 bb
       0.011812911 0.005517274 0.046776645 -0.00378208
000270 97 c9 30 bd 15 fb 26 bd 7c 76 90 bc 02 9c bd bb
       -0.043161 -0.040766794 -0.017634623 -0.00578642
000280 7e 19 0e 3c df 04 55 bc 50 a4 61 3c 5a fc af bc
       0.00867307 -0.01300165 0.013772085 -0.021482635
000290 4c 13 14 3d 88 11 4f 3c 04 d7 12 bc 6b 00 4d 3d
       0.036151215 0.012638457 -0.0089623965 0.050049227
0002a0 db b0 d3 3c 5c fb a5 bc a8 a9 e6 bc 7c 63 1b 3d
       0.025841167 -0.020261459 -0.02815707 0.037936673
0002b0 42 3f 04 3d b7 2a 5b 3d 26 ba 1c 3c c5 15 3c 3d
       0.03228689 0.053507533 0.009565866 0.0459192
0002c0 e0 98 e8 3c 0b 6b 9e 3c 24 32 0c bc b2 df 71 3d
       0.028393209 0.019338151 -0.008556876 0.059051223
0002d0 28 cd 96 3c 71 3a 20 bc 5e e0 70 bc 19 da 11 3d
       0.018408373 -0.0097795585 -0.014701931 0.035608385
0002e0 5e 9d f3 3c 08 b2 84 bb 80 31 53 3d d0 d5 5f 3c
       0.029738124 -0.0040495433 0.05156088 0.013661817
0002f0 dc 79 0e bd 2b 6d 43 bd 6f 36 d6 3c 66 1b 36 3d
       -0.034784183 -0.047711533 0.026149003 0.044459723
000300 b6 58 97 bc e1 8d 00 3d 1b 86 97 3c 0f cf 96 bc
       -0.018474918 0.031385306 0.018496564 -0.01840928
000310 a7 81 e2 bc 88 af 9e 3c b4 a8 d0 3c 7f 66 55 3d
       -0.027649714 0.01937081 0.025471069 0.0520997
000320 f8 50 42 3c b2 fb 6e 3c 35 1d 0b 3d 89 39 96 3c
       0.011860125 0.014586376 0.0339634 0.018337982
000330 43 9e a3 bb 02 50 76 bc d5 69 0c 3d 1c 60 e8 3b
       -0.0049932315 -0.015033724 0.034280617 0.0070915353
000340 be 57 55 3d cc cc 93 3d 9f d0 04 3c 89 cd f6 3c
       0.05208563 0.07216796 0.00810638 0.030127304
000350 9f 02 83 bc 20 00 47 3d cb 1c 7b 3d 77 dc 7b bc
       -0.01599246 0.048584104 0.061306756 -0.015372387
000360 59 83 8e bc 31 18 29 bd aa e9 33 bd 60 ca dd bc
       -0.017396616 -0.041282836 -0.04392401 -0.027074039
000370 d7 ab 42 bc c9 2b c0 bc 6b e5 63 bd 68 f5 1f bd
       -0.01188179 -0.023458378 -0.055638712 -0.039052397
000380 b2 e0 a7 bc f5 62 d2 3b 8a e9 55 3d ae 2d 3d 3d
       -0.020492885 0.006420488 0.052224673 0.04618614
000390 bb 13 15 3d 2e 8a de 3c c7 da 23 bd 3e 04 17 3d
       0.03639577 0.027165499 -0.040003564 0.03686928
0003a0 16 14 56 bd 3c e8 6d bc b3 fc 91 bc df b9 c9 3c
       -0.05226525 -0.014520701 -0.017820692 0.024624763
0003b0 bd b3 5c bd cc e4 ff bc b8 a2 54 bc f9 e4 5e 3c
       -0.05388235 -0.031237029 -0.012978248 0.013604396
0003c0 0f a3 c1 bc 58 fd 0a 3d 6b ef a9 bc cd 17 64 3c
       -0.023637323 0.033933014 -0.020744046 0.01392169
0003d0 7e fa 00 bd de b1 25 3d 91 66 8e bc f1 e7 62 bd
       -0.031488888 0.04045283 -0.017382892 -0.055396978
0003e0 9f 8b a6 3c 93 47 07 bd 66 00 be 3c 0e 97 51 bd
       0.020330248 -0.033027243 0.02319355 -0.051169448
0003f0 92 2c 93 bd 96 d9 67 bd 52 ff c1 3c fe 43 69 3b
       -0.071862355 -0.05660399 0.023681317 0.0035593505

conv2.0.bias f4 [32]
000000 87 15 f4 bb d4 07 de bc 42 0c 39 bd 6d 18 f9 bc
       -0.0074488553 -0.027103342 -0.045177706 -0.030407155
000010 1f 5f 15 bc e0 ee e3 3c 64 54 57 bb dd bf 87 3c
       -0.009116917 0.027823865 -0.0032856697 0.01657098
000020 f9 64 8e 3a 73 39 d4 3c 20 60 de 3c 61 a2 45 bc
       0.0010863832 0.0259063 0.027145445 -0.01206264
000030 12 66 05 bd 78 97 07 3c 42 ab 0c 3c a3 74 97 bc
       -0.032568045 0.008275859 0.008585753 -0.018488234
000040 14 5c 48 bc df d3 ad bc 5c 9e 6f 3c 92 5f c0 3c
       -0.012228984 -0.021219192 0.014625158 0.023483071
000050 e0 28 99 bc 6c 05 88 3c 26 95 5e bc 5b 7e e0 bc
       -0.018696249 0.016604148 -0.013585364 -0.027404001
000060 b1 bd 25 bd c0 dd 05 3c 85 c5 ce bb 9e 04 65 3d
       -0.040464107 0.008170545 -0.0063101673 0.055912606
000070 88 23 aa bc 54 76 00 3b b5 a0 15 3b cb ab 25 3c
       -0.020768896 0.001960178 0.0022831385 0.010111759

out1.weight f4 [50, 1568]
000000 87 d6 1d 3c cf b4 b0 bc b0 70 9e 3c 4b 8c a0 3b
       0.009633667 -0.021570591 0.019340843 0.0048995367
000010 89 75 6c 3c 07 9b da bc 9c 3b ae 3c 3d 36 9a 3c
       0.014432319 -0.02668525 0.021268658 0.018824691
000020 28 ad 0f bc 1a ad fe bc ea a9 1d bb 56 c8 b8 ba
       -0.008769311 -0.0310884 -0.0024057576 -0.0014097791
000030 f2 ac db bc 3b 7a 5f 3b 2f 05 71 3b e7 e4 57 3c
       -0.026815865 0.0034099955 0.0036776771 0.013177133
000040 bf fe 89 3c a5 d5 23 3c 45 98 97 bc 06 b1 95 bc
       0.016845105 0.009999667 -0.018505225 -0.018272888
000050 b6 06 b8 3c be 24 85 bc 3c 75 75 bc fb 20 32 bc
       0.022464138 -0.016252872 -0.014981564 -0.010872121
000060 9a 0d f6 bc 72 54 d5 3c 2a 4c d5 3c c7 c5 6e 3c
       -0.030035783 0.026041243 0.026037294 0.014573521
000070 c0 45 51 3c 85 ba f5 3b 71 97 8d 3c a6 aa 88 bc
       0.012772977 0.0074990415 0.017284127 -0.016682934
000080 88 8c ac 3c 5b 48 0d 3b 29 ac ac 3c 4b 9e e6 3c
       0.021063104 0.002155802 0.021078186 0.028151652
000090 9f 95 a6 3c b8 36 5a bc b4 e8 95 3c 33 c2 bf bc
       0.020335017 -0.01331871 0.018299438 -0.023408031
0000a0 42 cc c1 bb c8 d8 27 3c 30 b0 33 3a 0a 5a 9d bc
       -0.005914242 0.010244556 0.0006854562 -0.019207973
0000b0 d8 b9 c8 bc 5d 3d a2 bb 16 58 3e bc 79 7f d7 bc
       -0.02450268 -0.0049511627 -0.011617681 -0.0263059
0000c0 a1 93 5c 3c e3 ef 90 3c 30 ad 81 bb 20 79 3e 3c
       0.013462932 0.017692512 -0.003957413 0.011625558
0000d0 33 a7 96 3c 2d ee b0 3c 32 88 6d ba f3 02 ed 3b
       0.018390274 0.021597946 -0.0009061127 0.0072330176
0000e0 4e 19 55 3c 42 51 cd bc fd af 22 bb e7 e6 10 bb
       0.013006521 -0.02506316 -0.0024824135 -0.0022110285
0000f0 ba b0 c2 bc 0f 47 d9 3c 53 c0 8f bb fe 93 f4 bc
       -0.02376591 0.026523141 -0.0043869405 -0.029855724
000100 e3 9e b2 bc 10 e8 02 bd ac 87 67 bc 95 d3 df bb
       -0.021804279 -0.031959593 -0.014131468 -0.0068306425
000110 68 21 62 bb f6 7c bc 3c 3f 7a 88 3c 68 86 4b 3c
       -0.0034504775 0.023008805 0.016659854 0.012422182
000120 23 c5 4e 3c 04 6f a0 bc a1 bb c1 3c 64 43 f3 3c
       0.012620243 -0.019584186 0.023649039 0.02969522
000130 e0 55 e2 3c ef b9 38 3c d0 03 7e 3c 20 5e a9 3c
       0.027628839 0.011274799 0.015503839 0.020674765
000140 4a ad e6 3c a3 55 b7 ba bd bd 8d 3c e4 a0 1f bc
       0.028158803 -0.0013987314 0.017302388 -0.009742949
000150 5c 69 44 3c 10 72 cb bc 0e d2 22 3d d9 dd f3 3c
       0.01198801 -0.024834663 0.039751105 0.029768871
000160 01 3d ee 3c 15 5e 07 3d 48 20 60 3b 1f 64 89 bc
       0.029081823 0.033048708 0.0034198929 -0.016771374
000170 53 74 05 3c af 52 04 bd d0 2c 26 bc c4 1c 02 3d
       0.00814541 -0.032305416 -0.01014252 0.031765714
000180 9b 05 74 3b 9a 00 66 bc 4f 8e ab bc 8d c0 f5 3b
       0.0037234786 -0.014038229 -0.020941881 0.0074997605
000190 d1 dc ed 3b 4c eb 38 3c 23 42 ea ba 49 b1 a6 3c
       0.0072589894 0.011286568 -0.0017872493 0.020348208
0001a0 36 fd a8 bc fc 12 d2 3b 15 c5 04 bc a8 9c 00 bd
       -0.020628553 0.0064109545 -0.008103629 -0.0313994
0001b0 dd 05 cc bc d2 2c b0 bb 4d 0b cc bc 1b 3b b7 3c
       -0.02490514 -0.0053764367 -0.024907732 0.02236705
0001c0 ff 66 bf bc f2 7a af bb cf fc 03 bb 25 60 04 bd
       -0.023364542 -0.0053552324 -0.00201397 -0.032318253
0001d0 0c 27 d4 3c f6 69 cf 3a fb ad 91 bc 48 1a cb 3c
       0.025897525 0.0015824425 -0.017783156 0.024792805
0001e0 87 f9 a1 3c df ed 76 3c c8 9a 01 bd cc 4c 43 bc
       0.019772304 0.015071361 -0.03164175 -0.011920165
0001f0 a3 2a 38 bc 36 34 fa bb 37 be 92 3c 56 76 bc 3c
       -0.011240634 -0.0076356186 0.017912967 0.023005646
000200 25 7c 45 3c d8 a4 e6 3a 1e ce 62 bc 0c c4 7d 3c
       0.012053524 0.0017596735 -0.0138430875 0.015488636
000210 aa 82 7d 3c 37 60 15 bd 47 de 26 bb 74 47 84 bc
       0.015473047 -0.03646871 -0.0025462077 -0.016147353
000220 65 83 72 3b d0 8a 30 39 08 6e ad ba 5b 74 73 bc
       0.0037004587 0.0001683638 -0.0013231644 -0.014859284
000230 71 25 f4 bc 52 c7 d0 bc 01 18 b1 bc 0f e7 bd bc
       -0.02980301 -0.025485668 -0.021617891 -0.023181466
000240 91 27 95 bc ec 9d 54 3b ed 4f a6 bc 83 7d 6e 3a
       -0.018207343 0.0032442762 -0.020301783 0.0009097682
000250 55 b8 0f bc b5 b8 13 3c 17 dc 78 bc d8 2a 89 3c
       -0.0087719755 0.009016206 -0.015189192 0.016744062
000260 e4 a4 bc bb a6 64 7b 3b 28 bb 92 bc 5e d8 dd 3b
       -0.005756961 0.0038359552 -0.017911509 0.0067701777
000270 5d ce 8c bc 9c 87 7d 3a 50 b8 4b bb 28 5e 1e 3d
       -0.017188245 0.00096713915 -0.00310852 0.038664013
000280 58 ac 05 bc 2a 3e 16 3c 18 1a 38 3c 06 f4 b3 bc
       -0.008158766 0.0091700945 0.01123669 -0.021966945
000290 cb cc 2b bc 93 9b 90 3c 66 a3 1c 3c 17 14 ad bb
       -0.010485838 0.017652309 0.009560442 -0.005281936
0002a0 61 2c 50 3c 6f fc 84 bc 58 8c 98 bc 9b 8f cb bc
       0.012705893 -0.016233651 -0.018621609 -0.02484875
0002b0 d1 4c ff bc 93 05 5e 3c d8 21 d8 3b 0e 7c a9 bc
       -0.031164559 0.013551134 0.0065958314 -0.020689037
0002c0 6d b0 14 3c 93 aa 84 39 85 98 6a bc ad 8f a8 bb
       0.009075266 0.0002530409 -0.01431859 -0.0051440806
0002d0 10 bf bc bb 89 bd ae 3c 92 c7 8c bc dc 96 e4 3c
       -0.005760081 0.021330612 -0.017185006 0.027903967
0002e0 56 ae ad 3b 16 c6 5d bc f8 be eb 3c 35 50 30 3d
       0.0053003235 -0.013535997 0.028777584 0.04304524
0002f0 2c 0e ac 3c f2 c6 95 3c e7 12 96 bb 72 7a 8e bc
       0.021002851 0.018283341 -0.00457989 -0.01739237
000300 5c 21 84 bc 90 7d 94 bb cf 96 18 3c 7b 80 f2 ba
       -0.016129188 -0.00453157 0.009313299 -0.0018501425
000310 26 31 9f bb b3 d5 98 bb 73 3a 6d 3b 0e fc f3 bb
       -0.004858154 -0.004664147 0.0036198169 -0.0074458187
000320 ed 24 94 3b a6 db 05 3d 29 d1 27 bc a6 b8 76 ba
       0.0045210035 0.032680176 -0.010242739 -0.000941167
000330 58 f4 91 bc cf e9 87 bc 50 b1 14 3c 3d 6b ae 3a
       -0.017816707 -0.01659098 0.009075478 0.0013307106
000340 cd 6b da bc 8f 80 86 3c 48 74 38 3c 28 d3 82 3c
       -0.026662732 0.016418723 0.011258192 0.015969828
000350 6b 3c 81 bc d4 41 d9 3c 5a f8 fa bc 22 67 9b bc
       -0.01577588 0.026520647 -0.030636001 -0.018970076
000360 3c fb ac 3c 64 50 56 bb 7f 36 73 3c 58 d3 c7 bc
       0.021115892 -0.0032701725 0.014844536 -0.024392769
000370 c6 2c 1c 3a 7f e5 a2 3a cb ce ae 3c 6a 2f d3 3c
       0.00059575995 0.0012428014 0.021338841 0.025779445
000380 ac 36 d9 3a 61 87 c0 3b a4 d7 be ba aa 61 77 3c
       0.001657208 0.0058755134 -0.0014560116 0.0150989685
000390 22 97 ed 3c 86 90 4b b7 a7 34 cc bb 76 3a 20 bc
       0.02900273 -1.2133392e-05 -0.0062318626 -0.009779563
0003a0 be fb b8 bc b3 c6 1c bd 85 08 83 bc 3c 10 14 bb
       -0.022580978 -0.03827543 -0.015995273 -0.0022592684
0003b0 0f 28 62 3c b6 1b 2f 38 0c 11 c0 3c d6 c2 f6 bb
       0.013803496 4.174906e-05 0.023445629 -0.0075305505
0003c0 3c d8 ec bc ad 9c be bc 27 4e d3 bc bb 4f ac bc
       -0.028911702 -0.023268068 -0.025794102 -0.021034112
0003d0 7b 14 9b 3b 50 3b d2 bc d1 7b 51 bc be 98 b2 bc
       0.004732666 -0.025663048 -0.012785868 -0.021801349
0003e0 9e 40 da 39 30 44 fc bb ab 84 93 3c fd e7 6a bc
       0.00041628344 -0.0076985583 0.018007597 -0.014337537
0003f0 93 45 04 bc 3e 6c a7 bc a7 41 0e bc ba ee db 3c
       -0.008073228 -0.020437356 -0.008682645 0.026847232

out1.bias f4 [50]
000000 fb 16 f4 ba 83 08 e7 3c a4 50 8b 3c 92 7e 95 bc
       -0.0018622571 0.0282023 0.017006226 -0.01824883
000010 1a 39 13 bc 46 81 97 3c 52 d6 8a bc 9f e3 25 3c
       -0.008985782 0.01849426 -0.016947899 0.01012507
000020 6e 4e 8c bc 42 69 15 3d 50 0c 3e 3c fa 2f 8c 3c
       -0.017127242 0.036477335 0.011599615 0.01711272
000030 2e a3 02 3c 90 b5 82 3c 35 51 9b bc 6e 81 9d 3b
       0.007973475 0.015955716 -0.018959621 0.004806689
000040 97 e0 4a bb 49 21 70 bc 0e 98 a8 bc 1d 1f c4 bc
       -0.003095662 -0.014656373 -0.020580318 -0.023940617
000050 65 8f b3 bb c6 96 3c bc b0 51 39 3c 5c f8 25 bc
       -0.0054797404 -0.011510557 0.01131098 -0.010130014
000060 57 b9 cb bc 9e 5a fb bc 56 c2 83 3c f6 90 9e 3c
       -0.02486865 -0.030682858 0.016083878 0.019356232
000070 6e de f4 3c da e9 80 3c 49 b9 96 3c 9d b2 82 3c
       0.029891219 0.01573651 0.018398898 0.01595431
000080 6a 4b 98 3c a5 ed 52 3c ae 82 57 bc 91 53 f9 3c
       0.018590648 0.012874042 -0.013153715 0.030435355
000090 ea dc 0e 3c 9d cc 98 3c 30 97 d4 bc 53 d9 6b 3a
       0.008719662 0.018652255 -0.025950998 0.00089969224
0000a0 ae 88 30 3b 82 ba e0 3c 56 32 40 bb f2 89 1e 3c
       0.0026936936 0.027432684 -0.0029326878 0.009676443
0000b0 2a b7 e1 bc 5b 9d 98 bc d4 8d c4 bb 1e 4f 12 3b
       -0.02755316 -0.01862972 -0.0059983525 0.002232499
0000c0 44 5f a9 bc 72 60 a0 bc
       -0.020675309 -0.019577239

out2.weight f4 [10, 50]
000000 4c 9e d2 3d e7 0c 86 be 34 fa b2 bd 5f 54 a4 3d
       0.10284099 -0.2618172 -0.08739129 0.08023905
000010 ea 56 09 3e 19 8d 42 be 40 3b 44 3d cd ed 75 3e
       0.13412061 -0.18999137 0.047908068 0.24016495
000020 8c 64 e2 3d c2 d0 2e be b9 95 9d 3c e1 c3 43 be
       0.11054334 -0.17071822 0.019236432 -0.1911769
000030 d4 c6 02 bd 96 f6 c2 bd 88 b9 17 be d7 00 05 be
       -0.0319279 -0.09519689 -0.14816868 -0.12988602
000040 8a 5f 17 be 29 9f f4 bc 61 9b 4f bd ac cf 83 be
       -0.14782539 -0.02986105 -0.05068529 -0.2574438
000050 c5 9c 1c 3e 5c 19 41 be 7b c2 d6 3c 3f 6d 67 bd
       0.15294178 -0.1885733 0.026215782 -0.05650067
000060 58 1d f1 bd 15 84 c6 3d b2 af 45 3e fe 88 71 3d
       -0.11773175 0.096931614 0.19305304 0.058968537
000070 2a 03 51 be 1a 40 ba bd 01 3b b1 3d 24 50 21 be
       -0.20411363 -0.09094258 0.08653832 -0.15753227
000080 c9 4a c3 3d e7 14 fd 3d 78 67 ad 3d 07 48 66 3b
       0.095357485 0.123575024 0.08467001 0.0035138146
000090 21 02 d9 3b 3e 1f 9a bd 0c 6a 01 3e b0 e0 52 3d
       0.0066225682 -0.0752549 0.1263811 0.05148381
0000a0 54 bc 38 bc 0a 8c 0c be 6a e9 62 3e 54 b8 25 3e
       -0.01127537 -0.13725296 0.22159353 0.16183597
0000b0 7b f0 0c 3d 36 09 67 3d 20 3f f2 3d b5 04 e6 bd
       0.034409028 0.05640527 0.118284464 -0.112313665
0000c0 b8 bf fe bd 56 3d a4 bc 50 a9 55 bd a8 b4 6e 3e
       -0.12438911 -0.020048779 -0.052163422 0.23311102
0000d0 42 b3 01 be f0 49 ea 3d 9a d8 e7 3d f3 01 3b 3e
       -0.12666038 0.11439884 0.1132061 0.18262462
0000e0 44 ea c2 3c 15 30 bd 3c c5 74 2c 3d 56 78 36 3e
       0.023793347 0.023094216 0.042103548 0.17819342
0000f0 0d 57 18 be 78 fb d0 3d 41 0a 4c 3e 77 d3 2b 3e
       -0.14876957 0.10204214 0.19925787 0.16779886
000100 1f 15 11 bd 7e 33 03 be f7 01 01 3e 6c e1 30 be
       -0.035420533 -0.12812611 0.12598406 -0.17273492
000110 63 63 56 be 54 af b1 3d 32 15 9d 3d ed 5b ae bc
       -0.2093635 0.08676019 0.07670058 -0.021284068
000120 3f 09 0b 3d 53 fd ca 3d c4 01 02 be 62 8b a9 bd
       0.033944365 0.09911599 -0.12695986 -0.08278538
000130 5e 2a 19 3e 43 cb 1e 3e fa 6e 04 3e 71 a7 a0 3d
       0.14957568 0.15507226 0.12932959 0.07844437
000140 18 58 de 3d cc 45 01 3d 18 35 bb bc 5d 6d f8 3d
       0.10856646 0.031560704 -0.022852466 0.121302344
000150 90 cb 79 3d fc 85 39 3e cf 45 9f bd 9f 7e 09 3e
       0.060985148 0.18117517 -0.07776987 0.13427208
000160 4a 28 c5 bc 37 3b 66 3e 7e bc 07 3e da 13 99 3d
       -0.024067063 0.22483526 0.13255498 0.074744895
000170 06 54 73 be ca 4d 64 3e 4e f1 24 be 6c d5 ca bd
       -0.23762521 0.22295299 -0.16107675 -0.09903988
000180 63 78 0c 3e a5 68 fd bd cd 41 34 be 73 ab 50 3d
       0.13717799 -0.12373475 -0.17603226 0.050944757
000190 83 6c 08 3e 78 86 3d bd f4 dd a3 bd ca 11 43 3e
       0.13322644 -0.046270818 -0.080013186 0.19049755
0001a0 55 88 4d 3e 5b 34 eb bd 01 9e b9 bc bc a6 17 be
       0.20071538 -0.114845954 -0.02265835 -0.14809698
0001b0 b8 34 48 bd a1 ab 09 bd 27 cc bf bd cd ee 8d bd
       -0.0488784 -0.033610944 -0.09365111 -0.06930313
0001c0 16 18 77 3e 67 1c 8f bd 4e a3 84 bd da f8 2a 3c
       0.24130282 -0.06987839 -0.064764604 0.010435307
0001d0 da d9 95 bd 6b 29 ed 3d f4 72 2e be 01 5b 50 3e
       -0.073169425 0.115801655 -0.17036039 0.20347215
0001e0 fd 79 f5 bd 1c 3c 96 3d 95 a3 f1 bb 96 f3 28 be
       -0.11986158 0.07335684 -0.007374237 -0.1649917
0001f0 79 0d 0d 3e e8 63 1a 3d 6a 50 e4 3c 0c fd c5 3d
       0.1377467 0.037692934 0.027870376 0.096674055
000200 5f 3f 6e be 5a 94 a2 3d 89 67 5b be 27 e7 96 3d
       -0.23266362 0.07938452 -0.21426214 0.073683076
000210 21 a5 88 3d a1 00 01 3d ae 9d 2c 3e b7 5b b9 3d
       0.06672121 0.03149474 0.16857025 0.09050696
000220 c1 1a ae bd d4 79 4b 3e 01 df 78 3d 69 a5 a9 bd
       -0.08501197 0.19870692 0.060759548 -0.082835026
000230 3d d4 0a be af fb 59 3d 56 d2 21 3e 40 0f 55 3e
       -0.13557525 0.05321854 0.15802893 0.20806599
000240 e1 ad 07 3e 75 ea 11 3e fa a2 21 be 4b 79 93 3c
       0.13249923 0.14249595 -0.15784827 0.018002173
000250 00 87 55 be e3 a1 67 3e 4d 6c a0 3d 90 8d 4d 3d
       -0.2085228 0.22620349 0.07833157 0.050183833
000260 6e fb aa bb fa 65 b0 3d 6a 39 b4 3c cf 64 48 3e
       -0.005217961 0.086132005 0.022000033 0.19569705
000270 24 c1 5b bd b8 ed 4a 3d ff 4c 50 bd a6 76 93 bd
       -0.05365099 0.049543113 -0.05085468 -0.07200365
000280 9f fd 86 3d b5 d2 49 bd fd 05 61 be 6a d6 9a bd
       0.06591343 -0.04927321 -0.2197494 -0.075604275
000290 8f a1 eb 3d 7b b3 e0 3c 7b a8 b2 bc be 03 4a 3d
       0.11505424 0.027429333 -0.021808853 0.049319975
0002a0 00 74 50 be 33 60 42 3e 27 06 79 bd c1 28 3d 3b
       -0.2035675 0.1898201 -0.060796883 0.0028863403
0002b0 ca 28 18 3c 83 a7 5f 3e 78 9f 10 3e 35 45 c9 3d
       0.009287069 0.21841244 0.14123333 0.09827653
0002c0 b2 ae 72 be 45 08 10 3e e8 7e 83 3c 0f f9 68 be
       -0.23699453 0.14065655 0.016051725 -0.22751258
0002d0 26 c6 47 3e b6 bc f9 3d 17 aa 83 bd 37 c0 42 be
       0.19509181 0.12194197 -0.064289264 -0.19018637
0002e0 0d 17 65 3d 00 14 1e be 46 a0 5d bd 08 fb b3 bd
       0.055930186 -0.15437317 -0.054107927 -0.08788115
0002f0 da dc f0 3d 94 5c 0d bd 9b 9a 2a be d9 8c 72 3d
       0.11760874 -0.034512118 -0.1666054 0.059216354
000300 d4 17 1b be d3 d0 d2 3d a1 aa 72 3e 75 70 f6 bd
       -0.15145808 0.10293736 0.23697902 -0.12033168
000310 b6 90 e2 3d c1 cb 75 3d d5 b3 79 3d da 8c 83 3e
       0.11062758 0.060008768 0.060962517 0.256934
000320 f7 d2 12 be 17 c2 51 3e 48 03 1b be 60 aa 07 3d
       -0.14338289 0.20484196 -0.1513797 0.033121467
000330 d8 70 0b be 16 48 27 be 66 45 d9 bd c8 a8 17 3e
       -0.13617265 -0.16336092 -0.1060894 0.14810479
000340 05 48 80 3e f2 5b d5 3b 12 79 4e be 16 cf 26 3e
       0.25054947 0.006511205 -0.20163372 0.16289935
000350 da 98 57 3e c7 ee 46 3e 47 c9 e8 3d 14 7e 39 3e
       0.21054402 0.19427024 0.113665156 0.18114501
000360 8a e0 51 3d c4 93 f0 3d d0 5f 95 bc 88 89 16 3e
       0.051239528 0.11746934 -0.018234164 0.14700902
000370 08 12 ee 3d e4 a5 42 be fc 54 ed bd 00 a8 ca 3d
       0.11624533 -0.19008595 -0.11588475 0.09895325
000380 5a 7d bc bd 74 b7 c4 bd 2b cd 51 bd 62 d0 5e be
       -0.092035964 -0.096053034 -0.051221054 -0.21759179
000390 27 63 66 bd f8 7d c0 bd 87 83 54 be 3b c4 85 bd
       -0.056246903 -0.09399027 -0.20753299 -0.065315686
0003a0 4c cf 9c bc f0 4b 56 bd c1 43 ff bb c1 ce f0 bd
       -0.019141816 -0.052318513 -0.0077900593 -0.11758185
0003b0 29 10 09 3e 52 60 40 be d5 d9 f0 bd e7 72 17 3e
       0.13385071 -0.18786743 -0.11760298 0.14789926
0003c0 4c 70 ce 3c 72 d8 e2 3b df 4b 93 bd 4e e9 86 bd
       0.025200032 0.006922775 -0.07192206 -0.06587468
0003d0 41 42 fc bd 25 aa 03 3e f1 7e e9 bd d9 3e 10 3e
       -0.123173244 0.12857874 -0.11401165 0.14086474
0003e0 94 b1 aa bd ce 2b 32 be 46 27 4a 3d 75 94 e4 3c
       -0.083346516 -0.17399523 0.04935386 0.027902821
0003f0 a0 45 9f 3d 89 ec 06 be 1d ba 5b be 49 fc e4 3d
       0.07776952 -0.13176169 -0.21457715 0.11180932

out2.bias f4 [10]
000000 50 2c ee 3d c5 6c 01 3e a6 8a ae bd 01 a3 9c 3d
       0.11629546 0.12639149 -0.08522539 0.07648278
000010 a0 d7 ab bd 67 f4 ca bd 31 30 00 be da 1b 10 3d
       -0.083907366 -0.09909897 -0.12518384 0.03518281
000020 6e f3 c5 3d 1a 26 bb bd
       0.09665571 -0.09138127
